…
 padding=1, output_padding=1, bias=True), nn.InstanceNorm2d(int(ngf * mult / 2)), nn.ReLU(True)] model += [nn.ReflectionPad2d(3)] model += [nn.Conv2d(ngf, output_nc, kernel_size=7, padding=0)] model += [nn.Tanh()] self.model = nn.Sequential(*model) def forward(self, input): # &lt;3&gt; return self.model(input) . netG = ResNetGenerator() . model_path = &#39;../data/p1ch2/horse2zebra_0.4.0.pth&#39; model_data = torch.load(model_path) netG.load_state_dict(model_data) . &lt;All keys matched successfully&gt; . netG.eval() . ResNetGenerator( (model): Sequential( (0): ReflectionPad2d((3, 3, 3, 3)) (1): Conv2d(3, 64, kernel_size=(7, 7), stride=(1, 1)) (2): InstanceNorm2d(64, eps=1e-05, momentum=0.1, affine=False, track_running_stats=False) (3): ReLU(inplace=True) (4): Conv2d(64, 128, kernel_size=(3, 3), stride=(2, 2), padding=(1, 1)) (5): InstanceNorm2d(128, eps=1e-05, momentum=0.1, affine=False, track_running_stats=False) (6): ReLU(inplace=True) (7): Conv2d(128, 256, kernel_size=(3, 3), stride=(2, 2), padding=(1, 1)) (8): InstanceNorm2d(256, eps=1e-05, momentum=0.1, affine=False, track_running_stats=False) (9): ReLU(inplace=True) (10): ResNetBlock( (conv_block): Sequential( (0): ReflectionPad2d((1, 1, 1, 1)) (1): Conv2d(256, 256, kernel_size=(3, 3), stride=(1, 1)) (2): InstanceNorm2d(256, eps=1e-05, momentum=0.1, affine=False, track_running_stats=False) (3): ReLU(inplace=True) (4): ReflectionPad2d((1, 1, 1, 1)) (5): Conv2d(256, 256, kernel_size=(3, 3), stride=(1, 1)) (6): InstanceNorm2d(256, eps=1e-05, momentum=0.1, affine=False, track_running_stats=False) ) ) (11): ResNetBlock( (conv_block): Sequential( (0): ReflectionPad2d((1, 1, 1, 1)) (1): Conv2d(256, 256, kernel_size=(3, 3), stride=(1, 1)) (2): InstanceNorm2d(256, eps=1e-05, momentum=0.1, affine=False, track_running_stats=False) (3): ReLU(inplace=True) (4): ReflectionPad2d((1, 1, 1, 1)) (5): Conv2d(256, 256, kernel_size=(3, 3), stride=(1, 1)) (6): InstanceNorm2d(256, eps=1e-05, momentum=0.1, affine=False, track_running_stats=False) ) ) (12): ResNetBlock( (conv_block): Sequential( (0): ReflectionPad2d((1, 1, 1, 1)) (1): Conv2d(256, 256, kernel_size=(3, 3), stride=(1, 1)) (2): InstanceNorm2d(256, eps=1e-05, momentum=0.1, affine=False, track_running_stats=False) (3): ReLU(inplace=True) (4): ReflectionPad2d((1, 1, 1, 1)) (5): Conv2d(256, 256, kernel_size=(3, 3), stride=(1, 1)) (6): InstanceNorm2d(256, eps=1e-05, momentum=0.1, affine=False, track_running_stats=False) ) ) (13): ResNetBlock( (conv_block): Sequential( (0): ReflectionPad2d((1, 1, 1, 1)) (1): Conv2d(256, 256, kernel_size=(3, 3), stride=(1, 1)) (2): InstanceNorm2d(256, eps=1e-05, momentum=0.1, affine=False, track_running_stats=False) (3): ReLU(inplace=True) (4): ReflectionPad2d((1, 1, 1, 1)) (5): Conv2d(256, 256, kernel_size=(3, 3), stride=(1, 1)) (6): InstanceNorm2d(256, eps=1e-05, momentum=0.1, affine=False, track_running_stats=False) ) ) (14): ResNetBlock( (conv_block): Sequential( (0): ReflectionPad2d((1, 1, 1, 1)) (1): Conv2d(256, 256, kernel_size=(3, 3), stride=(1, 1)) (2): InstanceNorm2d(256, eps=1e-05, momentum=0.1, affine=False, track_running_stats=False) (3): ReLU(inplace=True) (4): ReflectionPad2d((1, 1, 1, 1)) (5): Conv2d(256, 256, kernel_size=(3, 3), stride=(1, 1)) (6): InstanceNorm2d(256, eps=1e-05, momentum=0.1, affine=False, track_running_stats=False) ) ) (15): ResNetBlock( (conv_block): Sequential( (0): ReflectionPad2d((1, 1, 1, 1)) (1): Conv2d(256, 256, kernel_size=(3, 3), stride=(1, 1)) (2): InstanceNorm2d(256, eps=1e-05, momentum=0.1, affine=False, track_running_stats=False) (3): ReLU(inplace=True) (4): ReflectionPad2d((1, 1, 1, 1)) (5): Conv2d(256, 256, kernel_size=(3, 3), stride=(1, 1)) (6): InstanceNorm2d(256, eps=1e-05, momentum=0.1, affine=False, track_running_stats=False) ) ) (16): ResNetBlock( (conv_block): Sequential( (0): ReflectionPad2d((1, 1, 1, 1)) (1): Conv2d(256, 256, kernel_size=(3, 3), stride=(1, 1)) (2): InstanceNorm2d(256, eps=1e-05, momentum=0.1, affine=False, track_running_stats=False) (3): ReLU(inplace=True) (4): ReflectionPad2d((1, 1, 1, 1)) (5): Conv2d(256, 256, kernel_size=(3, 3), stride=(1, 1)) (6): InstanceNorm2d(256, eps=1e-05, momentum=0.1, affine=False, track_running_stats=False) ) ) (17): ResNetBlock( (conv_block): Sequential( (0): ReflectionPad2d((1, 1, 1, 1)) (1): Conv2d(256, 256, kernel_size=(3, 3), stride=(1, 1)) (2): InstanceNorm2d(256, eps=1e-05, momentum=0.1, affine=False, track_running_stats=False) (3): ReLU(inplace=True) (4): ReflectionPad2d((1, 1, 1, 1)) (5): Conv2d(256, 256, kernel_size=(3, 3), stride=(1, 1)) (6): InstanceNorm2d(256, eps=1e-05, momentum=0.1, affine=False, track_running_stats=False) ) ) (18): ResNetBlock( (conv_block): Sequential( (0): ReflectionPad2d((1, 1, 1, 1)) (1): Conv2d(256, 256, kernel_size=(3, 3), stride=(1, 1)) (2): InstanceNorm2d(256, eps=1e-05, momentum=0.1, affine=False, track_running_stats=False) (3): ReLU(inplace=True) (4): ReflectionPad2d((1, 1, 1, 1)) (5): Conv2d(256, 256, kernel_size=(3, 3), stride=(1, 1)) (6): InstanceNorm2d(256, eps=1e-05, momentum=0.1, affine=False, track_running_stats=False) ) ) (19): ConvTranspose2d(256, 128, kernel_size=(3, 3), stride=(2, 2), padding=(1, 1), output_padding=(1, 1)) (20): InstanceNorm2d(128, eps=1e-05, momentum=0.1, affine=False, track_running_stats=False) (21): ReLU(inplace=True) (22): ConvTranspose2d(128, 64, kernel_size=(3, 3), stride=(2, 2), padding=(1, 1), output_padding=(1, 1)) (23): InstanceNorm2d(64, eps=1e-05, momentum=0.1, affine=False, track_running_stats=False) (24): ReLU(inplace=True) (25): ReflectionPad2d((3, 3, 3, 3)) (26): Conv2d(64, 3, kernel_size=(7, 7), stride=(1, 1)) (27): Tanh() ) ) . from PIL import Image from torchvision import transforms . preprocess = transforms.Compose([transforms.Resize(256), transforms.ToTensor()]) . img = Image.open(&quot;../data/p1ch2/horse.jpg&quot;) img . img_t = preprocess(img) batch_t = torch.unsqueeze(img_t, 0) . batch_out = netG(batch_t) . out_t = (batch_out.data.squeeze() + 1.0) / 2.0 out_img = transforms.ToPILImage()(out_t) # out_img.save(&#39;../data/p1ch2/zebra.jpg&#39;) out_img .",
…
 functions: they just make it convenient to instantiate the model with a number of layers and units that matches how the pretrained networks were built . Let’s create an instance of the network now. We’ll pass an argument that will instruct the function to download the weights of resnet101 trained on the ImageNet dataset, with 1.2 million images and 1,000 categories: . resnet = models.resnet101(pretrained=True) . Downloading: &quot;https://download.pytorch.org/models/resnet101-63fe2227.pth&quot; to C: Users hp/.cache torch hub checkpoints resnet101-63fe2227.pth 100.0% . resnet . ResNet( (conv1): Conv2d(3, 64, kernel_size=(7, 7), stride=(2, 2), padding=(3, 3), bias=False) (bn1): BatchNorm2d(64, eps=1e-05, momentum=0.1, affine=True, track_running_stats=True) (relu): ReLU(inplace) (maxpool): MaxPool2d(kernel_size=3, stride=2, padding=1, dilation=1, ceil_mode=False) (layer1): Sequential( (0): Bottleneck( (conv1): Conv2d(64, 64, kernel_size=(1, 1), stride=(1, 1), bias=False) (bn1): BatchNorm2d(64, eps=1e-05, momentum=0.1, affine=True, track_running_stats=True) (conv2): Conv2d(64, 64, kernel_size=(3, 3), stride=(1, 1), padding=(1, 1), bias=False) (bn2): BatchNorm2d(64, eps=1e-05, momentum=0.1, affine=True, track_running_stats=True) (conv3): Conv2d(64, 256, kernel_size=(1, 1), stride=(1, 1), bias=False) (bn3): BatchNorm2d(256, eps=1e-05, momentum=0.1, affine=True, track_running_stats=True) (relu): ReLU(inplace) (downsample): Sequential( (0): Conv2d(64, 256, kernel_size=(1, 1), stride=(1, 1), bias=False) (1): BatchNorm2d(256, eps=1e-05, momentum=0.1, affine=True, track_running_stats=True) ) ) (1): Bottleneck( (conv1): Conv2d(256, 64, kernel_size=(1, 1), stride=(1, 1), bias=False) (bn1): BatchNorm2d(64, eps=1e-05, momentum=0.1, affine=True, track_running_stats=True) (conv2): Conv2d(64, 64, kernel_size=(3, 3), stride=(1, 1), padding=(1, 1), bias=False) (bn2): BatchNorm2d(64, eps=1e-05, momentum=0.1, affine=True, track_running_stats=True) (conv3): Conv2d(64, 256, kernel_size=(1, 1), stride=(1, 1), bias=False) (bn3): BatchNorm2d(256, eps=1e-05, momentum=0.1, affine=True, track_running_stats=True) (relu): ReLU(inplace) ) ) ) (avgpool): AvgPool2d(kernel_size=7, stride=1, padding=0) (fc): Linear(in_features=2048, out_features=1000, bias=True) ) . What we are seeing here is modules, one per line. Note that they have nothing in common with Python modules: they are individual operations, the building blocks of a neural network. They are also called layers in other deep learning frameworks. If we scroll down, we’ll see a lot of Bottleneck modules repeating one after the other (101 of them!), 
…
