…
(Embedding(vocab_size, vec_size, input_length=max_length)) model.add(Conv1D(32, 2, activation=&#39;relu&#39;)) model.add(MaxPooling1D(2)) model.add(Dropout(0.5)) model.add(Dense(32, activation=&#39;relu&#39;)) model.add(Dropout(0.5)) model.add(Dense(16, activation=&#39;relu&#39;)) model.add(GlobalMaxPooling1D()) model.add(Dense(1, activation=&#39;sigmoid&#39;)) . model.summary() . Model: &#34;sequential&#34; _________________________________________________________________ Layer (type) Output Shape Param # ================================================================= embedding (Embedding) (None, 40, 100) 2337000 _________________________________________________________________ conv1d (Conv1D) (None, 39, 32) 6432 _________________________________________________________________ max_pooling1d (MaxPooling1D) (None, 19, 32) 0 _________________________________________________________________ dropout (Dropout) (None, 19, 32) 0 _________________________________________________________________ dense (Dense) (None, 19, 32) 1056 _________________________________________________________________ dropout_1 (Dropout) (None, 19, 32) 0 _________________________________________________________________ dense_1 (Dense) (None, 19, 16) 528 _________________________________________________________________ global_max_pooling1d (Global (None, 16) 0 _________________________________________________________________ dense_2 (Dense) (None, 1) 17 ================================================================= Total params: 2,345,033 Trainable params: 2,345,033 Non-trainable params: 0 _________________________________________________________________ . %%time model.compile(optimizer=&#39;adam&#39;, loss=&#39;binary_crossentropy&#39;, metrics=[&#39;accuracy&#39;]) model.fit(X_train, y_train, epochs=5, validation_data=(X_test, y_test)) . Ep
…
